…
│ (BatchNormalizatio… │ 32)               │            │                   │
├─────────────────────┼───────────────────┼────────────┼───────────────────┤
│ add_5 (Add)         │ (None, 16, 16,    │          0 │ batch_normalizat… │
│                     │ 32)               │            │ activation_10[0]… │
├─────────────────────┼───────────────────┼────────────┼───────────────────┤
│ activation_12       │ (None, 16, 16,    │          0 │ add_5[0][0]       │
│ (Activation)        │ 32)               │            │                   │
├─────────────────────┼───────────────────┼────────────┼───────────────────┤
│ conv2d_14 (Conv2D)  │ (None, 8, 8, 64)  │     18,496 │ activation_12[0]… │
├─────────────────────┼───────────────────┼────────────┼───────────────────┤
│ batch_normalizatio… │ (None, 8, 8, 64)  │        256 │ conv2d_14[0][0]   │
│ (BatchNormalizatio… │                   │            │                   │
├─────────────────────┼───────────────────┼────────────┼───────────────────┤
│ activation_13       │ (None, 8, 8, 64)  │          0 │ batch_normalizat… │
│ (Activation)        │                   │            │                   │
├─────────────────────┼───────────────────┼────────────┼───────────────────┤
│ conv2d_15 (Conv2D)  │ (None, 8, 8, 64)  │     36,928 │ activation_13[0]… │
├─────────────────────┼───────────────────┼────────────┼───────────────────┤
│ batch_normalizatio… │ (None, 8, 8, 64)  │        256 │ conv2d_15[0][0]   │
│ (BatchNormalizatio… │                   │            │                   │
├─────────────────────┼───────────────────┼────────────┼───────────────────┤
│ conv2d_16 (Conv2D)  │ (None, 8, 8, 64)  │      2,112 │ activation_12[0]… │
├─────────────────────┼───────────────────┼────────────┼───────────────────┤
│ add_6 (Add)         │ (None, 8, 8, 64)  │          0 │ batch_normalizat… │
│                     │                   │            │ conv2d_16[0][0]   │
├─────────────────────┼───────────────────┼────────────┼───────────────────┤
│ activation_14       │ (None, 8, 8, 64)  │          0 │ add_6[0][0]       │
│ (Activation)        │                   │            │                   │
├─────────────────────┼───────────────────┼────────────┼───────────────────┤
│ conv2d_17 (Conv2D)  │ (None, 8, 8, 64)  │     36,928 │ activation_14[0]… │
├─────────────────────┼───────────────────┼────────────┼───────────────────┤
│ batch_normalizatio… │ (None, 8, 8, 64)  │        256 │ conv2d_17[0][0]   │
│ (BatchNormalizatio… │                   │            │                   │
├─────────────────────┼───────────────────┼────────────┼───────────────────┤
│ activation_15       │ (None, 8, 8, 64)  │          0 │ batch_normalizat… │
│ (Activation)        │                   │            │                   │
├─────────────────────┼───────────────────┼────────────┼───────────────────┤
│ conv2d_18 (Conv2D)  │ (None, 8, 8, 64)  │     36,928 │ activation_15[0]… │
├─────────────────────┼───────────────────┼────────────┼───────────────────┤
│ batch_normalizatio… │ (None, 8, 8, 64)  │        256 │ conv2d_18[0][0]   │
│ (BatchNormalizatio… │                   │            │                   │
├─────────────────────┼───────────────────┼────────────┼───────────────────┤
│ add_7 (Add)         │ (None, 8, 8, 64)  │          0 │ batch_normalizat… │
│                     │                   │            │ activation_14[0]… │
├─────────────────────┼───────────────────┼────────────┼───────────────────┤
│ activation_16       │ (None, 8, 8, 64)  │          0 │ add_7[0][0]       │
│ (Activation)        │                   │            │                   │
├─────────────────────┼───────────────────┼────────────┼───────────────────┤
│ conv2d_19 (Conv2D)  │ (None, 8, 8, 64)  │     36,928 │ activation_16[0]… │
├─────────────────────┼───────────────────┼────────────┼───────────────────┤
│ batch_normalizatio… │ (None, 8, 8, 64)  │        256 │ conv2d_19[0][0]   │
│ (BatchNormalizatio… │                   │            │                   │
├─────────────────────┼───────────────────┼────────────┼───────────────────┤
│ activation_17       │ (None, 8, 8, 64)  │          0 │ batch_normalizat… │
│ (Activation)        │                   │            │                   │
├─────────────────────┼───────────────────┼────────────┼───────────────────┤
│ conv2d_20 (Conv2D)  │ (None, 8, 8, 64)  │     36,928 │ activation_17[0]… │
├─────────────────────┼───────────────────┼────────────┼───────────────────┤
│ batch_normalizatio… │ (None, 8, 8, 64)  │        256 │ conv2d_20[0][0]   │
│ (BatchNormalizatio… │                   │            │                   │
├─────────────────────┼───────────────────┼────────────┼───────────────────┤
│ add_8 (Add)         │ (None, 8, 8, 64)  │          0 │ batch_normalizat… │
│                     │                   │            │ activation_16[0]… │
├─────────────────────┼───────────────────┼────────────┼───────────────────┤
│ activation_18       │ (None, 8, 8, 64)  │          0 │ add_8[0][0]       │
│ (Activation)        │                   │            │                   │
├─────────────────────┼───────────────────┼────────────┼───────────────────┤
│ global_average_poo… │ (None, 64)        │          0 │ activation_18[0]… │
│ (GlobalAveragePool… │                   │            │                   │
├─────────────────────┼───────────────────┼────────────┼───────────────────┤
│ dense (Dense)       │ (None, 10)        │        650 │ global_average_p… │
└─────────────────────┴───────────────────┴────────────┴───────────────────┘
 Total params: 274,442 (1.05 MB)
 Trainable params: 273,066 (1.04 MB)
 Non-trainable params: 1,376 (5.38 KB)

🎯  train_model

🎯  _resume_from_checkpoint

🎯  _load_from_checkpoint

🎯  _split_dataset

🎯  _mixup_fn

🎯  _prepare_checkpoint_callback

🎯  __init__ (RecoveryCheckpoint)


🎯  _print_training_context
…
